['gender_validation', 'gender_train', 'train', 'validation']
Train Classes - ['surprised', 'angry', 'happy', 'neutral', 'scared', 'disgusted', 'sad']
Validation Classes - ['surprised', 'angry', 'happy', 'neutral', 'scared', 'disgusted', 'sad']
cuda
VGG_convnet(
  (conv1a): Conv2d(1, 64, kernel_size=(3, 3), stride=(1, 1), padding=(1, 1))
  (conv1b): Conv2d(64, 64, kernel_size=(3, 3), stride=(1, 1), padding=(1, 1))
  (pool1): MaxPool2d(kernel_size=4, stride=4, padding=0, dilation=1, ceil_mode=False)
  (drop1): Dropout(p=0.5, inplace=False)
  (conv2a): Conv2d(64, 128, kernel_size=(3, 3), stride=(1, 1), padding=(1, 1))
  (conv2b): Conv2d(128, 128, kernel_size=(3, 3), stride=(1, 1), padding=(1, 1))
  (pool2): MaxPool2d(kernel_size=4, stride=4, padding=0, dilation=1, ceil_mode=False)
  (drop2): Dropout(p=0.5, inplace=False)
  (conv3a): Conv2d(128, 256, kernel_size=(3, 3), stride=(1, 1), padding=(1, 1))
  (conv3b): Conv2d(256, 256, kernel_size=(3, 3), stride=(1, 1), padding=(1, 1))
  (pool3): MaxPool2d(kernel_size=2, stride=2, padding=0, dilation=1, ceil_mode=False)
  (drop3): Dropout(p=0.5, inplace=False)
  (conv4a): Conv2d(256, 512, kernel_size=(3, 3), stride=(1, 1), padding=(1, 1))
  (pool4): MaxPool2d(kernel_size=2, stride=2, padding=0, dilation=1, ceil_mode=False)
  (linear1): Linear(in_features=2048, out_features=4096, bias=True)
  (linear2): Linear(in_features=4096, out_features=4096, bias=True)
  (linear3): Linear(in_features=4096, out_features=10, bias=True)
)
There are 27539402 (27.54 million) parameters in this neural network
epoch= 0 	 time= 0.07433797121047973 min 	 loss= 2.071810123846703 	 error= 82.76288699857967 percent
error rate on test set = 81.92045471884988 percent
epoch= 1 	 time= 0.16197375059127808 min 	 loss= 1.95124321745843 	 error= 82.51546443123179 percent
error rate on test set = 81.45454580133612 percent
…
