['gender_validation', 'gender_train', 'train', 'validation']
Train Classes - ['surprised', 'angry', 'happy', 'neutral', 'scared', 'disgusted', 'sad']
Validation Classes - ['surprised', 'angry', 'happy', 'neutral', 'scared', 'disgusted', 'sad']
cuda
VGG_convnet(
  (conv1a): Conv2d(1, 64, kernel_size=(3, 3), stride=(1, 1), padding=(1, 1))
  (conv1b): Conv2d(64, 64, kernel_size=(3, 3), stride=(1, 1), padding=(1, 1))
  (pool1): MaxPool2d(kernel_size=4, stride=4, padding=0, dilation=1, ceil_mode=False)
  (conv2a): Conv2d(64, 128, kernel_size=(3, 3), stride=(1, 1), padding=(1, 1))
  (conv2b): Conv2d(128, 128, kernel_size=(3, 3), stride=(1, 1), padding=(1, 1))
  (pool2): MaxPool2d(kernel_size=4, stride=4, padding=0, dilation=1, ceil_mode=False)
  (conv3a): Conv2d(128, 256, kernel_size=(3, 3), stride=(1, 1), padding=(1, 1))
  (conv3b): Conv2d(256, 256, kernel_size=(3, 3), stride=(1, 1), padding=(1, 1))
  (pool3): MaxPool2d(kernel_size=2, stride=2, padding=0, dilation=1, ceil_mode=False)
  (conv4a): Conv2d(256, 512, kernel_size=(3, 3), stride=(1, 1), padding=(1, 1))
  (pool4): MaxPool2d(kernel_size=2, stride=2, padding=0, dilation=1, ceil_mode=False)
  (linear1): Linear(in_features=2048, out_features=4096, bias=True)
  (linear2): Linear(in_features=4096, out_features=4096, bias=True)
  (linear3): Linear(in_features=4096, out_features=10, bias=True)
)
There are 27539402 (27.54 million) parameters in this neural network
epoch= 1 	 time= 0.1262686808904012 min 	 lr= 0.25 	 loss= 2.0197863787719883 	 error= 82.43298954570416 percent
error rate on test set = 81.27272725105286 percent
 
epoch= 2 	 time= 0.19388731718063354 min 	 lr= 0.25 	 loss= 1.951467211713496 	 error= 81.85567032430589 percent
error rate on test set = 81.27272725105286 percent
…
