['train', 'validation']
Train Classes - ['fear', 'surprise', 'angry', 'happy', 'neutral', 'disgust', 'sad']
Validation Classes - ['fear', 'surprise', 'angry', 'happy', 'neutral', 'disgust', 'sad']
cuda
VGG_convnet(
  (conv1a): Conv2d(1, 64, kernel_size=(3, 3), stride=(1, 1), padding=(1, 1))
  (conv1b): Conv2d(64, 64, kernel_size=(3, 3), stride=(1, 1), padding=(1, 1))
  (pool1): MaxPool2d(kernel_size=2, stride=2, padding=0, dilation=1, ceil_mode=False)
  (drop1): Dropout(p=0.5, inplace=False)
  (conv2a): Conv2d(64, 128, kernel_size=(3, 3), stride=(1, 1), padding=(1, 1))
  (conv2b): Conv2d(128, 128, kernel_size=(3, 3), stride=(1, 1), padding=(1, 1))
  (pool2): MaxPool2d(kernel_size=2, stride=2, padding=0, dilation=1, ceil_mode=False)
  (drop2): Dropout(p=0.5, inplace=False)
  (conv3a): Conv2d(128, 256, kernel_size=(3, 3), stride=(1, 1), padding=(1, 1))
  (conv3b): Conv2d(256, 256, kernel_size=(3, 3), stride=(1, 1), padding=(1, 1))
  (pool3): MaxPool2d(kernel_size=2, stride=2, padding=0, dilation=1, ceil_mode=False)
  (drop3): Dropout(p=0.5, inplace=False)
  (conv4a): Conv2d(256, 512, kernel_size=(3, 3), stride=(1, 1), padding=(1, 1))
  (pool4): MaxPool2d(kernel_size=2, stride=2, padding=0, dilation=1, ceil_mode=False)
  (linear1): Linear(in_features=4608, out_features=4096, bias=True)
  (linear2): Linear(in_features=4096, out_features=4096, bias=True)
  (linear3): Linear(in_features=4096, out_features=10, bias=True)
)
There are 38025162 (38.03 million) parameters in this neural network
epoch= 0 	 time= 1.3718736052513123 min 	 loss= 1.849317129591237 	 error= 75.57719856759776 percent
error rate on test set = 75.36111109786563 percent
epoch= 1 	 time= 2.030494248867035 min 	 loss= 1.8135094093239825 	 error= 75.16135324602541 percent
error rate on test set = 76.26388954619566 percent
…
